GAN/DEHAZE-AOE_torch/snapshots/dehazer.pth (torch_old, 8613 bytes, 10 tensors)

e_conv1.weight f4 [3, 3, 1, 1]
-0.08156321 0.11956645 0.20975935 -0.089778066 0.06630758 0.06101656 -0.022803634 0.11752085
0.1550916
00000000: 9d0a a7bd 41df f43d 28cb 563e 90dd b7bd
00000010: 45cc 873d 80ec 793d b0ce babc c5ae f03d
00000020: 55d0 1e3e

e_conv1.bias f4 [3]
0.16533701 0.46539634 0.30825663
00000000: 1b4e 293e 6e48 ee3e d0d3 9d3e

e_conv2.weight f4 [3, 3, 3, 3]
2.01e-42 -1.377e-41 -1.6722e-41 -2.9193e-41 -7.434e-42 -1.9258e-41 2.3623e-41 1.926e-41
-5.388e-42 1.3443e-41 1.8215e-41 1.0002e-41 2.7023e-41 1.6838e-41 8.806e-42 1.5054e-41
-3.681e-41 1.3487e-41 -2.7087e-41 -2.6759e-41 -2.3706e-41 5.5218e-41 -1.6182e-41 -1.6776e-41
-2.7089e-41 -1.6158e-41 -5.5056e-41 -7.845087e-14 -5.1785555e-14 -4.185118e-14 -5.4394054e-14 -4.377716e-14
-3.8382187e-14 -5.1482927e-14 -5.0039247e-14 -5.7281735e-14 -1.7733813e-08 -2.0454376e-08 6.7064065e-09 -2.3554255e-08
-1.2590452e-08 -7.767071e-09 -3.3573354e-08 -6.4384897e-09 1.6641215e-09 -1.0188285e-09 -1.7598475e-10 -2.8992428e-10
-6.023647e-10 -4.6455984e-10 -3.3419592e-10 -2.0830919e-10 -4.5123486e-10 -6.1038224e-10 0.036921337 0.045937248
0.06950791 0.030615795 0.07335233 0.0041536065 0.050860878 0.045945764 0.048408158 -0.0006432408
0.0119055435 -0.0038163497 -0.0019106197 -0.02440064 0.038776692 -0.009517101 -0.01637229 0.016586198
-0.0022135833 0.033014376 -0.006427898 0.021563698 0.006444896 0.0006236129 0.03964214 0.022912921
-0.005781256
00000000: 9a05 0000 6326 0080 9d2e 0080 6151 0080
00000010: b914 0080 af35 0080 da41 0000 b035 0000
00000020: 050f 0080 7925 0000 c732 0000 e21b 0000
00000030: 544b 0000 f02e 0000 8c18 0000 f729 0000
00000040: 9c66 0080 9925 0000 824b 0080 984a 0080
00000050: 1542 0080 ed99 0000 1c2d 0080 c42e 0080
00000060: 834b 0080 0b2d 0080 7999 0080 d9a7 b0a9
00000070: ae38 69a9 207b 3ca9 13f8 74a9 a127 45a9
00000080: a6db 2ca9 c6db 67a9 535b 61a9 acfc 80a9
00000090: 1155 98b2 a6b3 afb2 2d6e e631 5b54 cab2
000000a0: 654d 58b2 f16f 05b2 4b32 10b3 8e39 ddb1
000000b0: 12b7 e430 d706 8cb0 4e7f 41af 3763 9faf
000000c0: a693 25b0 fc64 ffaf e5b9 b7af d309 65af
000000d0: a911 f8af d5c7 27b0 d43a 173d b228 3c3d
000000e0: 2a5a 8e3d facd fa3c bf39 963d fa1a 883b
000000f0: 7f53 503d a031 3c3d a247 463d 299f 28ba
00000100: 780f 433c b91b 7abb c26d faba dae3 c7bc
00000110: 4fd4 1e3d 9ded 1bbc 2e1f 86bc c7df 873c
00000120: c411 11bb 153a 073d 1ea1 d2bb 5aa6 b03c
00000130: b52f d33b f479 233a cc5f 223d e1b3 bb3c
00000140: b170 bdbb

e_conv2.bias f4 [3]
-2.8029e-41 -6.2365116e-06 0.04533141
00000000: 224e 0080 3a43 d1b6 6ead 393d

e_conv3.weight f4 [3, 6, 5, 5]
0.07781536 0.037051555 0.043171734 0.022416849 0.054926254 0.08684572 0.0497295 0.06382769
0.04779635 0.038155995 0.054116335 0.06315986 0.066055045 0.044994105 0.041119993 0.037458804
0.061689887 0.047728907 0.042814117 0.072613165 0.04990737 0.055047955 0.030244563 0.033105195
0.052204534 0.00034815344 0.014517707 -0.008313881 0.019466633 0.006867732 0.004126727 0.0070504113
-0.003678843 -0.027015781 -0.0019245622 -0.031663906 -0.018547006 0.018721242 -0.022503735 0.01642571
0.0026883865 -0.011458011 0.012328476 0.011122276 -0.014921859 0.011125758 0.027094932 0.016404074
0.006496756 0.022386706 -0.01033584 0.013711797 0.02639785 0.015166987 0.015779156 0.0072023217
0.015762499 0.019282503 0.020513505 0.023830405 0.042581107 0.011123718 0.023528421 0.021595703
-0.0086473245 0.009293102 -0.008089762 0.059492767 0.028741859 0.024536908 0.04305427 0.031619534
0.017846247 0.0054352707 0.03278121 -5.0982e-41 4.9463e-41 4.888e-41 -8.537e-42 -6.143e-42
8.219e-42 6.9911e-41 7.0153e-41 7.0171e-41 1.1709e-41 -1.9286e-41 6.1489e-41 5.471e-41
-3.819e-42 3.7633e-41 -8.398e-42 2.374e-42 5.8783e-41 5.9407e-41 5.8744e-41 1.3709e-41
-2.8809e-41 1.2829e-41 2.2033e-41 -7.2153e-41 2.6835e-41 2.408e-41 3.8425e-41 5.6633e-41
5.652e-41 3.4207e-41 3.5863e-41 2.8697e-41 5.3199e-41 5.285e-41 2.6803e-41 3.8691e-41
3.9451e-41 5.1089e-41 5.8686e-41 3.4203e-41 3.69e-41 4.1385e-41 5.6893e-41 5.8357e-41
3.1987e-41 3.5763e-41 3.3094e-41 5.6254e-41 4.6655e-41 0.0038893067 -0.017906303 0.018353235
0.041381232 -0.0120615745 0.010229469 0.024123054 0.01727023 0.011761962 0.003856671 0.046125922
0.01723047 0.024135636 0.029979588 0.020893576 0.016650043 0.0061231195 0.015407142 -0.011780236
0.010284755 0.00993845 0.027538225 0.05000865 0.013908361 0.026972692 4.878e-41 5.0897e-41
-9.0165e-41 -8.3342e-41 1.37e-41 3.9594e-41 -7.6886e-41 5.1997e-41 6.6985e-41 -1.08763e-40
5.5749e-41 8.0638e-41 -2.2561e-41 -9.6032e-41 -3.68e-42 9.828e-41 6.356e-41 -6.262e-41
-2.985e-42 -1.02263e-40 -6.9626e-41 -2.6745e-41 5.6401e-41 -8.8412e-41 5.6758e-41 5.4393e-41
-1.7296e-41 -2.255e-42 -5.475e-42 6.5218e-41 3.588e-41 7.0474e-41 2.0191e-41 5.4663e-41
-2.608e-42 1.04528e-40 4.2932e-41 6.5361e-41 -4.465e-42 6.0453e-41 7.419e-41 3.8372e-41
-7.238e-42 5.2982e-41 -6.7313e-41 6.0411e-41 -4.243e-41 -1.5952e-41 -7.1046e-41 3.3918e-41
8.9773e-41 -3.5111e-41 -4.1177e-41 -4.7378e-41 -4.66e-42 4.6674e-41 -8.3244e-41 5.9732e-41
7.5971e-41 -6.1638e-41 -5.9547e-41 -6.6297e-41 6.0428e-41 9.1544e-41 7.8384e-41 -3.6397e-41
1.01734e-40 5.7698e-41 -8.4906e-41 -4.1183e-41 -6.8687e-41 3.5659e-41 -4.8031e-41 -5.685e-41
-9.5811e-41 -1.34746e-40 9.435e-42 6.911e-42 -1.43168e-40 -1.50445e-40 -5.0782e-41 -1.21263e-40
2.6095e-41 5.0728e-41 -1.84589e-40 -1.56913e-40 6.9443e-41 -1.81324e-40 -1.32406e-40 2.5955e-41
-2.1235e-41 4.9239e-41 -7.4066e-41 5.408e-42 5.489e-41 2.00498e-40 1.43161e-40 -1.3489e-41
1.25559e-40 -1.18132e-40 1.00313e-40 -1.68025e-40 -1.30447e-40 9.9167e-41 1.87389e-40 3.7545e-41
00000000: a95d 9f3d 5fc3 173d d8d4 303d 8aa3 b73c
00000010: 5afa 603d 2bdc b13d 29b1 4b3d 18b8 823d
00000020: 1bc6 433d 7649 1c3d 17a9 5d3d f559 813d
00000030: de47 873d bd4b 383d 706d 283d 676e 193d
00000040: 89ae 7c3d 637f 433d db5d 2f3d 36b6 943d
00000050: ac6b 4c3d f779 613d 72c3 f73c 5099 073d
00000060: 6cd4 553d 5d88 b639 addb 6d3c f236 08bc
00000070: 7d78 9f3c b60a e13b 7f39 873b 2307 e73b
00000080: be18 71bb 3350 ddbc 9741 fcba 03b2 01bd
00000090: e4ef 97bc 4a5d 993c c159 b8bc 368f 863c
000000a0: a42f 303b 62ba 3bbc 60fd 493c 353a 363c
000000b0: d07a 74bc d048 363c 31f6 dd3c d661 863c
000000c0: bde2 d43b 5364 b73c a857 29bc 72a7 603c
000000d0: 4e40 d83c f47e 783c 4a43 813c 7401 ec3b
000000e0: 5b20 813c 57f6 9d3c f00b a83c fb37 c33c
000000f0: 8769 2e3d 4140 363c adbe c03c 79e9 b03c
00000100: 82ad 0dbc 1842 183c ec8a 04bc b0ae 733d
00000110: 0c74 eb3c a001 c93c ad59 303d 7c83 013d
00000120: 4b32 923c 5b1a b23b 9745 063d 1e8e 0080
00000130: e289 0000 4288 0000 cc17 0080 2011 0080
00000140: e916 0000 e2c2 0000 8fc3 0000 9cc3 0000
00000150: a420 0000 c335 0080 68ab 0000 8298 0000
00000160: a50a 0080 e868 0000 6917 0080 9e06 0000
00000170: dda3 0000 9aa5 0000 c1a3 0000 3726 0000
00000180: 4f50 0080 c323 0000 6b3d 0000 22c9 0080
00000190: ce4a 0000 2043 0000 1d6b 0000 df9d 0000
000001a0: 8e9d 0000 5b5f 0000 f963 0000 ff4f 0000
000001b0: 4c94 0000 5393 0000 b74a 0000 db6b 0000
000001c0: f96d 0000 6a8e 0000 98a3 0000 585f 0000
000001d0: dd66 0000 5d73 0000 989e 0000 ada2 0000
000001e0: 2b59 0000 b163 0000 415c 0000 d09c 0000
000001f0: 0e82 0000 bde3 7e3b 3db0 92bc 8659 963c
00000200: 5e7f 293d e99d 45bc 8199 273c b69d c53c
00000210: 4c7a 8d3c 3fb5 403c 34c0 7c3b 89ee 3c3d
00000220: ea26 8d3c 19b8 c53c c197 f53c 0129 ab3c
00000230: ac65 883c 73a4 c83b 3d6e 7c3c e401 41bc
00000240: 6481 283c e1d4 223c d897 e13c dfd5 4c3d
00000250: e5df 633c d6f5 dc3c fb87 0000 e18d 0000
00000260: 58fb 0080 53e8 0080 3126 0000 5f6e 0000
00000270: 54d6 0080 f290 0000 baba 0000 302f 0180
00000280: 689b 0000 c9e0 0000 e43e 0080 b30b 0180
00000290: 420a 0080 f711 0100 2eb1 0000 8fae 0080
000002a0: 5208 0080 111d 0180 17c2 0080 8e4a 0080
000002b0: 399d 0000 75f6 0080 389e 0000 a097 0000
000002c0: 3730 0080 4906 0080 430f 0080 cdb5 0000
000002d0: 0564 0000 74c4 0000 4938 0000 6198 0000
000002e0: 4507 0080 6223 0100 ad77 0000 33b6 0000
000002f0: 720c 0080 85a8 0000 d0ce 0000 f76a 0000
00000300: 2d14 0080 b193 0000 a4bb 0080 67a8 0000
00000310: 4776 0080 782c 0080 0cc6 0080 8d5e 0000
00000320: 40fa 0000 e061 0080 c972 0080 1284 0080
00000330: fd0c 0080 1c82 0000 0de8 0080 82a6 0000
00000340: c7d3 0000 d2ab 0080 fea5 0080 cfb8 0080
00000350: 73a8 0000 30ff 0000 81da 0000 7665 0080
00000360: 981b 0100 d7a0 0000 afec 0080 cd72 0080
00000370: 79bf 0080 6763 0000 e485 0080 7a9e 0080
00000380: 150b 0180 9e77 0180 4d1a 0000 4413 0000
00000390: 188f 0180 61a3 0180 8f8d 0080 0852 0180
000003a0: be48 0000 698d 0000 8f02 0280 69b5 0180
000003b0: 94c1 0000 75f9 0180 1871 0180 5a48 0000
000003c0: 323b 0080 4289 0000 77ce 0080 130f 0000
000003d0: 0399 0000 e82e 0200 138f 0100 9a25 0080
000003e0: 025e 0100 4e49 0180 a217 0100 63d4 0180
000003f0: a26b 0180 7014 0100 5d0a 0200 a968 0000

e_conv3.bias f4 [3]
0.010422547 6.509e-41 0.00998836
00000000: 55c3 2a3c 72b5 0000 38a6 233c

e_conv4.weight f4 [3, 6, 7, 7]
8.0177e-41 1.8543e-41 1.0845e-41 1.05226e-40 4.5635e-41 3.5195e-41 -1.02997e-40 1.1041e-41
-4.4863e-41 1.05239e-40 8.7154e-41 9.5294e-41 7.6371e-41 1.04098e-40 -6.6578e-41 1.11126e-40
6.4101e-41 -4.8804e-41 1.05012e-40 1.11246e-40 -1.07391e-40 6.92e-41 -3.1172e-41 -5.5186e-41
7.5523e-41 -9.0839e-41 8.3666e-41 6.422e-41 9.456e-42 2.6929e-41 8.4888e-41 -4.9668e-41
5.84e-41 1.17716e-40 -5.4708e-41 -3.2774e-41 -9.1173e-41 -9.4052e-41 -5.6231e-41 5.9181e-41
-5.398e-42 7.1185e-41 1.09991e-40 1.744e-41 -3.7743e-41 5.9743e-41 -2.5598e-41 8.0992e-41
6.9297e-41 -2.6464e-41 -2.9957e-41 -5.5421e-41 6.7611e-41 -3.6183e-41 -2.1527e-41 -4.6229e-41
-3.5508e-41 -4.035e-41 -1.1313e-41 -4.0961e-41 2.47e-42 -4.3079e-41 -4.0074e-41 -2.504e-41
-6.1877e-41 -4.9527e-41 -5.9513e-41 -5.1107e-41 -7.028e-42 -4.0412e-41 5.674e-41 -5.1121e-41
-5.3125e-41 -7.3557e-41 -7.0663e-41 -5.3094e-41 -5.3022e-41 6.166e-41 -4.4638e-41 -4.0925e-41
-5.6046e-41 -5.3922e-41 -4.9631e-41 -4.6526e-41 -2.067e-41 -4.3065e-41 5.1561e-41 -2.5633e-41
-5.1875e-41 -2.1452e-41 -4.4239e-41 -9.201e-42 -2.738e-41 6.1821e-41 -5.1894e-41 -4.5893e-41
-3.3906e-41 -3.9891e-41 0.027786555 0.037900567 0.028027836 0.018355345 0.02458694 0.037542026
0.005720306 0.003397914 0.00974197 -0.0084842 -0.001978034 0.011387241 -0.0022820707 0.023158612
0.014762642 0.023882108 0.010211438 0.0163422 0.023272218 -0.0014714899 0.006219705 0.004888491
0.0081265615 0.024090914 0.018823592 0.018252643 0.014030999 0.0046351207 0.007649348 0.019911863
0.016468195 -0.0042960127 -0.007183138 0.015629524 0.018522268 -0.0055494253 0.017342022 0.018707346
0.030054376 0.0062379846 0.018174984 0.023266202 -0.0068040243 0.025663124 0.011270296 0.024981797
0.006030574 0.021443214 0.020259418 0.014470124 0.027471948 0.01848529 0.012416844 0.026836468
0.040406723 0.03507402 0.022510657 0.0007475183 0.027318396 0.014740581 0.010549832 0.05080822
0.03592748 -0.00744379 0.038230285 0.024042703 0.023383714 0.014716721 0.027490478 0.015001132
0.011112163 0.045978215 0.005486315 0.02994246 0.0439797 0.024001032 0.022736272 0.05361992
0.014351472 0.009822804 0.025492128 0.042953223 0.028157301 0.0288181 0.048787937 0.00860517
0.021406792 0.0122314375 -0.011259547 0.03740971 0.019160237 0.02554589 0.017924787 0.011946455
0.026466254 0.010910515 0.03656323 0.013651212 8.367e-41 -1.22092e-40 3.4189e-41 5.8322e-41
1.11213e-40 -5.6596e-41 -5.219e-41 -3.2186e-41 -1.4641e-41 2.3941e-41 -8.8897e-41 8.6007e-41
7.47e-41 5.1687e-41 3.1135e-41 5.89e-43 -1.872e-42 9.39e-41 -4.0757e-41 1.11445e-40
1.28387e-40 -9.6589e-41 1.2057e-40 7.8365e-41 7.9594e-41 -1.9244e-41 1.17552e-40 7.7137e-41
-7.7258e-41 -2.9672e-41 9.7455e-41 9.2833e-41 -3.205e-42 -5.7682e-41 7.2276e-41 1.1124e-40
-1.01684e-40 -8.9586e-41 9.9101e-41 -1.3555e-41 7.5386e-41 -7.2413e-41 7.5268e-41 -8.8917e-41
7.9909e-41 -4.2521e-41 3.8823e-41 6.1287e-41 -8.0692e-41 0.018782644 0.059680194 0.039738838
0.02679951 0.04377285 0.020143868 0.031356018 0.047823045 0.007876479 0.026083944 0.038067926
00000000: 80df 0000 b133 0000 3b1e 0000 5425 0100
00000010: 367f 0000 1c62 0000 1d1f 0180 c71e 0000
00000020: 0f7d 0080 5d25 0100 f3f2 0000 a409 0100
00000030: e4d4 0000 2f22 0100 98b9 0080 c635 0100
00000040: b0b2 0000 0c88 0080 bb24 0100 1c36 0100
00000050: 5d2b 0180 e7c0 0000 e556 0080 d699 0080
00000060: 87d2 0000 39fd 0080 3ae9 0000 05b3 0000
00000070: 5c1a 0000 114b 0000 a2ec 0000 748a 0080
00000080: cca2 0000 2548 0100 8198 0080 5c5b 0080
00000090: 27fe 0080 2e06 0180 c09c 0080 f9a4 0000
000000a0: 0c0f 0080 6fc6 0000 9c32 0100 9e30 0000
000000b0: 3669 0080 8aa6 0000 5b47 0080 c6e1 0000
000000c0: 2cc1 0000 c549 0080 8253 0080 7e9a 0080
000000d0: 79bc 0000 dd64 0080 023c 0080 de80 0080
000000e0: fb62 0080 7b70 0080 891f 0080 2f72 0080
000000f0: e306 0000 1678 0080 b66f 0080 cd45 0080
00000100: 7dac 0080 108a 0080 e6a5 0080 778e 0080
00000110: 9713 0080 a770 0080 2b9e 0000 818e 0080
00000120: 1794 0080 0ccd 0080 fbc4 0080 0194 0080
00000130: ce93 0080 e2ab 0000 6f7c 0080 1572 0080
00000140: 3c9c 0080 5096 0080 5a8a 0080 b281 0080
00000150: 9f39 0080 0c78 0080 bb8f 0000 7447 0080
00000160: 9b90 0080 cd3b 0080 527b 0080 a619 0080
00000170: 534c 0080 55ac 0000 a990 0080 ee7f 0080
00000180: 845e 0080 336f 0080 a1a0 e33c a03d 1b3d
00000190: a29a e53c f35d 963c 8d6a c93c abc5 193d
000001a0: 6871 bb3b 8aaf 5e3b c99c 1f3c 5001 0bbc
000001b0: e7a1 01bb 8d91 3a3c cb8e 15bb 21b7 bd3c
000001c0: 02df 713c 69a4 c33c e04d 273c 14e0 853c
000001d0: 61a5 be3c 02df c0ba abce cb3b a22f a03b
000001e0: 4525 053c 4f5a c53c ef33 9a3c 9186 953c
000001f0: 46e2 653c 36e2 973b 62a7 fa3b 341e a33c
00000200: 4fe8 863c 91c5 8cbb 8760 ebbb 7d09 803c
00000210: 03bc 973c f4d7 b5bb db10 8e3c 2640 993c
00000220: 9834 f63c 0268 cc3b b4e3 943c c398 be3c
00000230: 4bf4 debb 793b d23c 0ca7 383c a0a6 cc3c
00000240: 1f9c c53b aea9 af3c 14f7 a53c 1914 6d3c
00000250: da0c e13c 776e 973c 0570 4b3c 27d8 db3c
00000260: 8581 253d c7a9 0f3d 4568 b83c 1bf5 433a
00000270: d4ca df3c 7a82 713c 34d9 2c3c 481c 503d
00000280: b128 133d 09eb f3bb 5c97 1c3d 34f5 c43c
00000290: 348f bf3c 671e 713c b633 e13c 4fc7 753c
000002a0: ca0f 363c a753 3c3d 8cc6 b33b e449 f53c
000002b0: 0f24 343d d09d c43c 6b41 ba3c 90a0 5b3d
000002c0: 7022 6b3c d3ef 203c ded4 d03c b8ef 2f3d
000002d0: 24aa e63c f013 ec3c dcd5 473d b3fc 0c3c
000002e0: 4c5d af3c 5e66 483c f779 38bc ed3a 193d
000002f0: eef5 9c3c 9d45 d13c 01d7 923c 10bb 433c
00000300: c2cf d83c 04c2 323c 53c3 153d 55a9 5f3c
00000310: 3de9 0000 5854 0180 4e5f 0000 94a2 0000
00000320: 0436 0100 c49d 0080 7c91 0080 b959 0080
00000330: d028 0080 bd42 0000 cff7 0080 c1ef 0000
00000340: 3cd0 0000 1590 0000 cb56 0000 a401 0000
00000350: 3805 0080 c105 0100 9d71 0080 aa36 0100
00000360: e465 0100 400d 0180 1a50 0100 73da 0000
00000370: e0dd 0000 a535 0080 b047 0100 07d7 0000
00000380: 5dd7 0080 b752 0080 aa0f 0100 c802 0100
00000390: ef08 0080 cba0 0080 7ac9 0000 1836 0100
000003a0: 741b 0180 bbf9 0080 4114 0100 c925 0080
000003b0: 25d2 0000 dcc9 0080 d1d1 0000 ddf7 0080
000003c0: c1de 0000 8876 0080 396c 0000 d8aa 0000
000003d0: f0e0 0080 0fde 993c 3873 743d 31c5 223d
000003e0: a58a db3c 294b 333d c104 a53c 2b6f 003d
000003f0: 19e2 433d 590c 013c ffad d53c 1ded 1b3d

e_conv4.bias f4 [3]
0.03658455 0.038143832 -4.762995e-16
00000000: aed9 153d b53c 1c3d b348 09a6

e_conv5.weight f4 [3, 12, 3, 3]
0.039331287 0.045262925 0.039385315 0.041731395 0.048197556 0.041635048 0.03769787 0.04356835
0.037504517 0.012589069 0.013364748 0.012654136 0.0127338255 0.01357665 0.012773169 0.012132608
0.012895656 0.012154688 0.024458086 0.028537672 0.024377577 0.026223106 0.030698994 0.026041461
0.023534194 0.02757156 0.023286486 1.4464e-41 -7.5094e-41 -7.2443e-41 -2.5522e-41 2.1869e-41
3.6252e-41 2.4028e-41 -1.442e-41 7.1815e-41 -7.3471e-41 -7.3016e-41 -6.989e-41 -5.7617e-41
-7.3422e-41 -6.9476e-41 -3.3676e-41 -6.9373e-41 -7.3471e-41 0.021515802 0.023099644 0.022300372
0.021521978 0.023172516 0.02220472 0.020448253 0.021940483 0.020927086 0.027721744 0.027803518
0.027913904 0.02701786 0.027143277 0.027243154 0.026226783 0.026359387 0.026479954 -7.2055e-41
-6.929e-41 -6.533e-42 -9.5623e-41 1.89992e-40 5.9761e-41 -6.8465e-41 8.9682e-41 -1.06437e-40
0.028700158 0.028103372 0.028371358 0.027970495 0.027296241 0.027452119 0.027329983 0.026635077
0.026737645 0.026607962 0.025729785 0.026219165 0.025827536 0.024960984 0.025449205 0.025384123
0.02453264 0.025019031 0.027007306 0.025922352 0.026219992 0.02624899 0.025179258 0.025479363
0.025820691 0.024761137 0.025060043 -2.533783e-07 -2.526267e-07 -2.475104e-07 -2.5213006e-07 -2.5121105e-07
-2.459719e-07 -2.5053814e-07 -2.4940752e-07 -2.440389e-07 0.045737185 0.05016987 0.046417493 0.046925057
0.052103143 0.04776888 0.043891788 0.04846952 0.04476957 0.012943512 0.01360499 0.0131468205
0.012932544 0.013668592 0.013160348 0.012429552 0.013134631 0.012680484 0.021303693 0.024436846
0.022072045 0.022497509 0.025875231 0.022828227 0.020565875 0.023573669 0.020978156 6.6011e-41
-5.5716e-41 -1.6434e-41 -1.4712e-41 -2.8132e-41 -8.5405e-41 1.0435e-41 -1.7442e-41 -8.3415e-41
-6.9437e-41 -6.6461e-41 -6.8528e-41 -5.461e-41 -6.9657e-41 -7.3899e-41 -5.4599e-41 -7.1843e-41
-7.077e-41 0.019234164 0.019974021 0.019896109 0.018958472 0.019712005 0.019570539 0.018347757
0.019057143 0.018872349 0.026821606 0.026482293 0.026924517 0.025961284 0.025645189 0.026165392
0.025607 0.025362866 0.026431097 -4.4065e-41 -1.4908e-41 -1.06922e-40 3.5234e-41 -6.8694e-41
-2.3022e-41 6.5837e-41 3.5295e-41 8.0615e-41 0.027974578 0.027223546 0.028007992 0.026979364
0.025859194 0.026940223 0.026681881 0.025923703 0.02664668 0.026898114 0.025866523 0.026827889
0.025933411 0.025041057 0.025770646 0.025629487 0.024659783 0.025569135 0.027555332 0.02618627
0.026595384 0.026564205 0.02532628 0.0258373 0.026273567 0.024455465 0.02551842 -2.7596553e-07
-2.751994e-07 -2.6757388e-07 -2.7402064e-07 -2.7292737e-07 -2.6504193e-07 -2.7053446e-07 -2.6905747e-07 -2.609536e-07
0.017698552 0.057162974 0.05039268 0.025674729 0.07545273 0.039057475 0.0012310855 0.06805336
0.043244783 0.0048845327 0.0034427766 -0.003077715 -0.0040990706 0.008135115 0.0075176074 0.00828013
0.0113403015 0.0012624087 0.0029118548 0.011368777 0.03109708 0.019016666 0.016722135 0.006634546
0.02763572 0.021526875 0.0020217737 -8.5509e-41 1.2331e-41 1.8696e-41 1.7093e-41 4.1205e-41
-2.8884e-41 6.073e-42 -1.794e-41 5.2626e-41 5.8878e-41 -2.2237e-41 -2.5183e-41 3.1458e-41
00000000: d819 213d 9e65 393d 7f52 213d 8aee 2a3d
00000010: cd6a 453d 8389 2a3d 1569 1a3d ba74 323d
00000020: 569e 193d 6242 4e3c d1f7 5a3c 4b53 4f3c
00000030: 89a1 503c 9970 5e3c 8e46 513c d9c7 463c
00000040: 4d48 533c 7524 473c 535c c83c d6c7 e93c
00000050: 7cb3 c73c d7d1 d63c 757c fb3c e754 d53c
00000060: c8ca c03c c1dd e13c 4dc3 be3c 5228 0000
00000070: 55d1 0080 f1c9 0080 2547 0080 f63c 0000
00000080: 0e65 0000 fb42 0000 3228 0080 31c8 0000
00000090: cfcc 0080 8acb 0080 d3c2 0080 9da0 0080
000000a0: accc 0080 acc1 0080 e05d 0080 62c1 0080
000000b0: cfcc 0080 e841 b03c 773b bd3c 45af b63c
000000c0: dc4e b03c 4ad4 bd3c ace6 b53c 1883 a73c
000000d0: 87bc b33c 486f ab3c b618 e33c 34c4 e33c
000000e0: b3ab e43c 8f54 dd3c 945b de3c 092d df3c
000000f0: 8dd9 d63c a4ef d73c 7dec d83c dcc8 0080
00000100: 27c1 0080 3612 0080 8f0a 0180 9f11 0200
00000110: 97a6 0000 dabe 0080 fff9 0000 b428 0180
00000120: 981c eb3c 0b39 e63c 0d6b e83c 6122 e53c
00000130: 5e9c df3c 44e3 e03c 21e3 df3c ce31 da3c
00000140: e808 db3c f1f8 d93c 45c7 d23c 93c9 d63c
00000150: 4594 d33c fa7a cc3c da7a d03c 5df2 cf3c
00000160: adf8 c83c b6f4 cc3c 6d3e dd3c 1d5b d43c
00000170: 4fcb d63c 1f08 d73c bb44 ce3c 19ba d03c
00000180: ea85 d33c ded7 ca3c b84a cd3c 0c08 88b4
00000190: c0a0 87b4 92e1 84b4 7e5c 87b4 2fde 86b4
000001a0: 1f0e 84b4 b381 86b4 4fe6 85b4 7304 83b4
000001b0: ea56 3b3d ec7e 4d3d 4520 3e3d 7d34 403d
000001c0: 1b6a 553d 4da9 433d e0c7 333d fa87 463d
000001d0: 4c60 373d 0611 543c 77e7 5e3c c365 573c
000001e0: 05e3 533c 3bf2 5f3c 809e 573c 52a5 4b3c
000001f0: a332 573c cec1 4f3c 1585 ae3c c82f c83c
00000200: 6fd0 b43c b24c b83c 4bf8 d33c 4302 bb3c
00000210: c479 a83c 911d c13c 62da ab3c 03b8 0000
00000220: 509b 0080 d02d 0080 0329 0080 6c4e 0080
00000230: 13ee 0080 171d 0000 9f30 0080 87e8 0080
00000240: 90c1 0080 44b9 0080 07bf 0080 3b98 0080
00000250: 2dc2 0080 00ce 0080 3398 0080 45c8 0080
00000260: 47c5 0080 f790 9d3c 8fa0 a33c 2afd a23c
00000270: cc4e 9b3c 127b a13c 6552 a03c 094e 963c
00000280: ba1d 9c3c 2f9a 9a3c fcb8 db3c 65f1 d83c
00000290: ce90 dc3c c2ac d43c dc15 d23c ce58 d63c
000002a0: c5c5 d13c c9c5 cf3c 0786 d83c d67a 0080
000002b0: 8f29 0080 0e2a 0180 3862 0000 7ebf 0080
000002c0: 2d40 0080 87b7 0000 6362 0000 b9e0 0000
000002d0: f12a e53c ea03 df3c 0471 e53c d403 dd3c
000002e0: a9d6 d33c beb1 dc3c f693 da3c f25d d43c
000002f0: 234a da3c 6f59 dc3c 08e6 d33c 29c6 db3c
00000300: 4e72 d43c e722 cd3c f61c d33c eef4 d13c
00000310: 5003 ca3c 5d76 d13c b8bb e13c 9784 d63c
00000320: 90de d93c 2d9d d93c 0f79 cf3c bfa8 d33c
00000330: aa3b d73c d456 c83c 010c d13c 6a28 94b4
00000340: 1ebf 93b4 13a7 8fb4 1c1d 93b4 da86 92b4
00000350: 164b 8eb4 f93d 91b4 fa72 90b4 3119 8cb4
00000360: 8efc 903c b923 6a3d 8e68 4e3d cf53 d23c
00000370: f686 9a3d bbfa 1f3d 605c a13a 8f5f 8b3d
00000380: 7121 313d 6e0e a03b 35a0 613b 7db3 49bb
00000390: 7f51 86bb 2549 053c 4356 f63b 62a9 073c
000003a0: accc 393c 6877 a53a d1d4 3e3b 1b44 3a3c
000003b0: 4ebf fe3c d7c8 9b3c dcfc 883c 9b66 d93b
000003c0: 4e64 e23c 2159 b03c bc7f 043b 5dee 0080
000003d0: 6022 0000 1e34 0000 a62f 0000 dd72 0000
000003e0: 8450 0080 ee10 0000 0232 0080 b392 0000
000003f0: 21a4 0000 fd3d 0080 3346 0080 b157 0000

e_conv5.bias f4 [3]
0.0032257722 0.0021415832 -0.016480245
00000000: 7a67 533b ce59 0c3b 9401 87bc
